best_model.pth (torch, 182882 bytes, 11 tensors)

model.0.weight f4 [256, 8]
0.11855056 0.06777379 0.027385026 0.00011148995 -0.30275112 0.27397627 0.080465816 0.67500657
0.38559553 -0.43962732 0.2962674 0.085946925 0.10816001 0.04188784 0.20444213 -0.01118116
0.04403239 0.004539572 -0.027475065 -0.0467127 -0.19128099 0.0068114554 0.02336683 0.5462063
-0.21625242 -0.044050705 -0.0020094474 -0.024213795 0.35980728 -0.050145954 0.47666976 -0.40175018
-0.009797843 -0.053444006 -0.03376337 0.014460644 0.002654197 1.1432738 0.037814304 -0.027919168
-0.0031153949 -0.006897387 0.17037912 0.18107422 0.20480806 -0.11871539 -0.06141745 -0.23982759
-0.024110563 0.011358856 -0.3477817 -0.030923104 -0.18989846 0.7565837 0.09375415 -0.03655119
-0.0019352564 0.00026502233 0.07407195 -0.04821506 0.37413374 -0.18879451 -0.07819942 -0.3942378
-0.09990952 -0.32939383 0.17448488 -0.4504254 -0.18102415 -0.15240896 0.41436931 0.17085296
0.16189662 -0.3284475 -0.5515334 -0.04027169 -0.43223917 0.25769204 0.26123172 0.17713085
-0.005600965 -0.5330061 0.05045158 -0.032906335 0.259351 0.025276015 0.029169004 -0.38879633
-0.19915216 0.2491616 0.11107433 -0.06341322 0.09575624 0.36238733 -0.20358862 -0.048319377
0.073528975 -0.044279058 -0.03170953 -0.563008 -0.5046662 0.32685283 0.029949414 -0.017079672
0.034282926 0.06985651 -0.58019626 -0.02831622 -0.48292282 -0.07751307 0.2692317 0.101240024
0.0664202 -0.920064 0.03309866 -0.06291955 0.21304663 0.014114897 -0.038070347 0.017966885
0.0016194886 -0.027842648 0.012491085 -0.55128247 0.15090914 -0.032303974 -0.032842312 -0.4835514
0.23880087 -0.012606345 -0.006977178 0.04530994 -0.63398427 0.37233573 0.026412193 -0.056008577
-0.24419095 -0.591744 0.16616617 -0.0022318913 0.34009972 -0.1438849 0.17748089 -0.22680253
-0.12712641 -0.06292795 -0.016639587 -0.021410838 0.40395835 -0.09122205 -0.09373925 -0.6442262
0.11862856 -0.31355006 0.29792434 -0.29814857 0.08510812 0.20850323 0.06095273 -0.32075858
0.14441192 0.0142379785 0.02468907 -0.12503006 -0.040658563 0.024867093 0.11756937 0.8417376
0.023403633 -0.42232037 -0.51123 0.0050111124 -0.010270681 0.034540586 -0.2392168 0.011791398
-0.15039076 0.38068977 -0.0071291733 -0.12470548 -0.0035414603 -0.008685954 0.026633132 0.006668346
0.20814887 0.05789534 0.076729864 -0.26135463 -0.35814592 0.14213018 -0.19975828 -0.09189755
-0.008326957 0.3607949 -0.20723523 0.009034702 -0.025872618 0.008308532 -0.0035187774 0.01720142
-0.27758673 -0.08257658 0.10991256 0.0918435 0.24102038 -0.09970751 -0.15236144 -0.65363985
-0.17283936 0.08663749 0.13038903 0.19743572 -0.50099504 -0.11729573 0.103870645 0.4559131
0.01386283 0.007952596 -0.006572016 -0.008599082 -0.16086704 0.89453423 0.053792704 0.0019179496
-0.8106923 0.120150104 0.16683303 0.0067310715 -0.5494482 -0.08410914 -0.0004555721 0.2260014
0.28859288 0.27473113 0.09439836 0.016811773 0.2929332 -0.10385721 -0.2861503 -0.44880053
0.119917475 0.02727984 0.04971877 -0.027530566 -0.11432521 -0.03690926 0.06067372 0.6538117
0.003554867 0.0063703475 -0.01588595 0.020211797 0.21003361 0.0053577935 -0.06484591 -0.7233404
00000000: a3ca f23d fccc 8a3d 9056 e03c b6cf e938
00000010: 3202 9bbe 9e46 8c3e 43cb a43d 3bcd 2c3f
00000020: c76c c53e d516 e1be 5cb0 973e f104 b03d
00000030: ff82 dd3d 9592 2b3d 4759 513e 2f31 37bc
00000040: 4f5b 343d b1c0 943b 6313 e1bc d155 3fbd
00000050: 2adf 43be a132 df3b cb6b bf3c 2dd4 0b3f
00000060: 4671 5dbe 836e 34bd efb0 03bb 025c c6bc
00000070: a938 b83e d865 4dbd 0f0e f43e 33b2 cdbe
00000080: 2287 20bc 1ae8 5abd 764b 0abd 56ec 6c3c
00000090: 09f2 2d3b cc56 923f 2ce3 1a3d bdb6 e4bc
000000a0: a72b 4cbb 7a03 e2bb dd77 2e3e 856b 393e
000000b0: 34b9 513e 0e21 f3bd dd90 7bbd 5d95 75be
000000c0: 8483 c5bc 7f1a 3a3c 7110 b2be 7352 fdbc
000000d0: be74 42be 78af 413f 2d02 c03d b3b6 15bd
000000e0: 6ea8 fdba b2f2 8a39 09b3 973d 287d 45bd
000000f0: 758e bf3e 5953 41be 0427 a0bd 89d9 c9be
00000100: 5d9d ccbd 4fa6 a8be 2aac 323e 289e e6be
00000110: 655e 39be 1811 1cbe 3728 d43e 14f4 2e3e
00000120: 3ac8 253e 452a a8be 4b31 0dbf edf3 24bd
00000130: 744e ddbe 36f0 833e 2ac0 853e ca61 353e
00000140: 4d88 b7bb 1673 08bf 51a6 4e3d cbc8 06bd
00000150: a7c9 843e a50f cf3c d6f3 ee3c 5010 c7be
00000160: 8bee 4bbe 3824 7f3e f07a e33d cade 81bd
00000170: d91b c43d d58a b93e 8979 50be 8aea 45bd
00000180: 5c96 963d f55d 35bd dae1 01bd 4b21 10bf
00000190: ce31 01bf 4159 a73e 7958 f53c abea 8bbc
000001a0: 416c 0c3d ee10 8f3d be87 14bf 6bf7 e7bc
000001b0: a941 f7be 2cbf 9ebd bdd8 893e ee56 cf3d
000001c0: 5007 883d 5089 6bbf 7692 073d f7db 80bd
000001d0: e528 5a3e 2b42 673c a7ef 1bbd 4a2f 933c
000001e0: 0545 d43a 4416 e4bc 68a7 4c3c d920 0dbf
000001f0: ed87 1a3e 2c51 04bd a985 06bd 0d94 f7be
00000200: 3788 743e d88a 4ebc d0a0 e4bb ea96 393d
00000210: cb4c 22bf caa2 be3e 625e d83c 4069 65bd
00000220: 310d 7abe 897c 17bf 7727 2a3e ec44 12bb
00000230: 8d21 ae3e 9056 13be 8dbd 353e ec3e 68be
00000240: 6d2d 02be 5ee0 80bd be4f 88bc c865 afbc
00000250: a1d3 ce3e a0d2 babd 5dfa bfbd 02ec 24bf
00000260: 88f3 f23d a289 a0be 8a89 983e eea6 98be
00000270: 2b4d ae3d df81 553e 92a9 793d 783a a4be
00000280: b8e0 133e 6946 693c bc40 ca3c e107 00be
00000290: 9889 26bd 13b6 cb3c 36c8 f03d 1e7c 573f
000002a0: fab8 bf3c 603a d8be f8df 02bf 4234 a43b
000002b0: 5c46 28bc 6e7a 0d3d 40f5 74be b530 413c
000002c0: 0900 1abe c5e9 c23e d79b e9bb 9665 ffbd
000002d0: d817 68bb 884f 0ebc ba2d da3c 2482 da3b
000002e0: fa24 553e aa23 6d3d 8c24 9d3d 46d0 85be
000002f0: e75e b7be 938a 113e 6f8d 4cbe c834 bcbd
00000300: ca6d 08bc 1cba b83e 7935 54be 4906 143c
00000310: d0f2 d3bc 8220 083c 4a9b 66bb fee9 8c3c
00000320: d91f 8ebe e91d a9bd d619 e13d 7218 bc3d
00000330: 0cce 763e 7333 ccbd a304 1cbe f154 27bf
00000340: cdfc 30be ff6e b13d b484 053e 972c 4a3e
00000350: 3641 00bf be38 f0bd 22ba d43d 716d e93e
00000360: ec20 633c 9b4b 023c 115a d7bb 2ae3 0cbc
00000370: 54ba 24be 3200 653f bd55 5c3d b663 fb3a
00000380: 8889 4fbf 4211 f63d 47d6 2a3e 5290 dc3b
00000390: a3a8 0cbf 6a41 acbd dad9 eeb9 e96c 673e
000003a0: 72c2 933e 8fa9 8c3e ed53 c13d d8b8 893c
000003b0: 57fb 953e 17b3 d4bd 4b82 92be 2fc9 e5be
000003c0: 4b97 f53d f979 df3c e9a5 4b3d c887 e1bc
000003d0: 5623 eabd 2a2e 17bd 0285 783d 3460 273f
000003e0: c6f8 683b 59be d03b 4023 82bc 3693 a53c
000003f0: 0d13 573e 6e90 af3b efcd 84bd d62c 39bf

model.0.bias f4 [256]
0.017604599 -0.38821447 -0.37667426 0.109990075 -0.11284203 -0.76123166 -0.43855387 -0.15723905
-0.14341785 -0.28305647 -0.27244285 -0.56550556 -0.011742731 -0.40782103 -0.06969783 -0.1823273
0.014687066 -0.26291105 -0.14412731 -0.41724524 0.13399212 0.048628595 -0.68780833 0.09693787
-0.6595975 0.23632158 -0.11424517 -0.2012077 0.18647154 -0.23461835 0.18812706 0.12187583
-0.74667007 0.03989566 -0.1843699 0.23395206 0.008276426 -0.31834882 -0.6876738 -0.45784596
0.20842423 -0.6820214 -0.34029293 0.034491412 -0.32265902 0.35836446 -0.7215888 -0.54487693
0.28275394 0.12944357 -0.38240108 -0.60479575 0.32600284 -0.124433115 0.1115735 -0.71371925
-0.22073957 -0.1230469 -0.44084528 0.29783744 -0.25357628 -0.6099556 -0.17107849 -0.6887406
-0.23777305 -0.19777486 -0.20180112 0.061056487 0.18664816 0.07449454 0.05750484 0.09708696
-0.06933657 -0.34790888 -0.061092377 0.105883844 -0.04797093 -0.62427145 0.76101214 -0.6459048
0.033602223 0.5157735 0.6627179 -0.40566164 -0.40921128 0.4116749 -0.35294956 -0.02386316
0.47910273 -0.9461783 -0.52926755 -0.38520226 -0.09522447 -0.36447647 0.27803257 0.11052036
0.03202401 0.1960375 0.113123395 -0.70573944 0.10942561 -0.31564593 -0.36932868 -0.73756623
-0.21972902 -0.13697937 0.37575302 0.051025987 0.53069556 0.21356532 -0.6027811 -0.49588096
-0.8539669 -0.47443137 0.2617644 0.11484838 0.2534893 0.00634047 -0.38098538 -0.68965155
0.29643065 0.24741569 0.068143725 -0.32443333 -0.7495649 -0.28816715 0.016302885 -0.63626593
0.060198337 -0.33247477 -0.38473594 0.166799 -0.5163439 -0.22787549 -0.43620816 -0.5476959
-0.23285313 -0.23419991 -0.66356605 0.4033275 -0.3973314 -0.65388805 -0.4432696 0.09071564
-0.37074345 -0.6444416 0.24544312 -0.41629913 -0.45994103 -0.29005212 -0.14208563 -0.11872715
-0.054392353 -0.29094142 -0.5538373 -0.31506038 -0.41120023 0.04386742 -0.14184456 0.117580935
0.32980958 -0.7837021 -0.29006234 0.050299518 -0.054125294 0.14407045 -0.47362134 -0.12330106
-0.49595717 -0.42341948 -0.24708365 0.07691105 0.15554132 -0.044037934 -0.031523354 0.15255457
-0.6729628 -0.5385963 -0.34165135 0.34886232 0.3229644 -0.5054419 -0.33007815 -0.37549275
-0.34144178 -0.55011344 0.14120857 -0.3010065 0.57154304 -0.16147174 -0.76291364 -0.7311549
-0.29259348 -0.5624185 0.156031 -0.50537026 0.01960251 -0.5262407 -0.4007919 -0.37092617
0.36693507 -0.23548308 -0.8665831 -0.60346293 -0.56479007 -0.7406077 -0.34106717 0.4783897
-0.19563735 -0.63818365 -0.6285277 -0.44147125 -0.6973243 -0.48713905 0.042867407 -0.38422254
0.15165693 -0.44461855 -0.6895287 -0.7590633 0.032168545 0.3289582 0.0076992833 0.117664464
-0.18415675 -0.24591407 0.10290107 -0.38048068 -0.3756478 -0.6886507 0.10268035 -0.3288092
-0.58341044 -0.34147662 -0.5574801 -0.19799161 -0.19919108 -0.65145 -0.10503446 -0.6087523
-0.56303287 -0.061257515 0.030071868 -0.113332026 -0.44629598 -0.41771987 -0.45519924 0.050805487
-0.01713099 -0.070749305 -0.6820941 -0.7678263 -0.4279033 -0.30547315 -0.36545137 -0.60155964
00000000: 8537 903c 0cc4 c6be 73db c0be 7a42 e13d
00000010: b919 e7bd 14e0 42bf 228a e0be 4603 21be
00000020: 21dc 12be c7ec 90be a17d 8bbe f9c4 10bf
00000030: 9564 40bc ebcd d0be bcbd 8ebd 02b4 3abe
00000040: 05a2 703c 479c 86be 1c96 13be 2ba1 d5be
00000050: 3b35 093e c72e 473d 3514 30bf 5d87 c63d
00000060: 62db 28bf 49fe 713e 5ff9 e9bd 6409 4ebe
00000070: 65f2 3e3e cb3f 70be 61a4 403e 099a f93d
00000080: c525 3fbf a269 233d 77cb 3cbe 2191 6f3e
00000090: d999 073c 9efe a2be 640b 30bf c96a eabe
000000a0: 296d 553e f498 2ebf e03a aebe de46 0d3d
000000b0: 9033 a5be 8c7b b73e 0bba 38bf 0e7d 0bbf
000000c0: 20c5 903e db8c 043e 13ca c3be e5d3 1abf
000000d0: d8e9 a63e cad6 febd a680 e43d 4eb6 36bf
000000e0: 8e09 62be 0300 fcbd 79b6 e1be 267e 983e
000000f0: c0d4 81be 0d26 1cbf 332f 2fbe 4e51 30bf
00000100: c77a 73be 7e85 4abe f4a4 4ebe 5e16 7a3d
00000110: b220 3f3e 9890 983d 328a 6b3d 87d5 c63d
00000120: 5500 8ebd 1d21 b2be 003c 7abd a1d9 d83d
00000130: 2a7d 44bd 41d0 1fbf b1d1 423f 045a 25bf
00000140: 7ca2 093d bb09 043f e1a7 293f e2b2 cfbe
00000150: 2484 d1be 0dc7 d23e ceb5 b4be ac7c c3bc
00000160: f44c f53e be38 72bf 147e 07bf 3b39 c5be
00000170: 0c05 c3bd a99c babe 495a 8e3e 8058 e23d
00000180: 9c2b 033d 0ebe 483e 3dad e73d 57ab 34bf
00000190: 891a e03d 589c a1be a618 bdbe 24d1 3cbf
000001a0: a500 61be 5244 0cbe b362 c03e a000 513d
000001b0: aadb 073f deb0 5a3e dd4f 1abf 1ce4 fdbe
000001c0: 939d 5abf abe8 f2be fc05 863e a135 eb3d
000001d0: 59c9 813e b8c3 cf3b 8410 c3be 018d 30bf
000001e0: c2c5 973e 8a5a 7d3e f08e 8b3d 201c a6be
000001f0: 7ce3 3fbf a58a 93be a18d 853c 53e2 22bf
00000200: 8892 763d 223a aabe 1cfc c4be 5bcd 2a3e
00000210: 1d2f 04bf 3158 69be ad56 dfbe cc35 0cbf
00000220: 0d71 6ebe 1ad2 6fbe 77df 29bf f180 ce3e
00000230: 056f cbbe 3565 27bf 3cf4 e2be 1fc9 b93d
00000240: 16d2 bdbe 20fa 24bf 7155 7b3e 2925 d5be
00000250: 647d ebbe b681 94be e57e 11be 3827 f3bd
00000260: 84ca 5ebd 46f6 94be 48c8 0dbf 984f a1be
00000270: d688 d2be 53ae 333d b33f 11be 46ce f03d
00000280: cddc a83e b3a0 48bf 0d83 94be de06 4e3d
00000290: 7cb2 5dbd 3487 133e 7f7e f2be 4485 fcbd
000002a0: 19ee fdbe 70ca d8be 7f03 7dbe 8a83 9d3d
000002b0: 3946 1f3e 1f61 34bd a21e 01bd 4437 1c3e
000002c0: 4a47 2cbf 72e1 09bf edec aebe 159e b23e
000002d0: 975b a53e a464 01bf 0100 a9be 9640 c0be
000002e0: 75d1 aebe 3cd4 0cbf fb98 103e 861d 9abe
000002f0: a550 123f d958 25be 4f4e 43bf f82c 3bbf
00000300: d0ce 95be a9fa 0fbf 97c6 1f3e f25f 01bf
00000310: 7195 a03c b6b7 06bf 9934 cdbe 09ea bdbe
00000320: eade bb3e 7a22 71be 64d8 5dbf 8c7c 1abf
00000330: 1596 10bf 7798 3dbf 5ba0 aebe 7fef f43e
00000340: 2855 48be 0160 23bf 31e7 20bf 8508 e2be
00000350: d883 32bf 4a6a f9be bc95 2f3d d1b8 c4be
00000360: f44b 1b3e 0ba5 e3be f484 30bf f951 42bf
00000370: 2ac3 033d 366d a83e 454a fc3b 11fa f03d
00000380: 9693 3cbe e6d0 7bbe ccbd d23d 5dce c2be
00000390: e954 c0be 6a4b 30bf 134a d23d ae59 a8be
000003a0: 635a 15bf 06d6 aebe 04b7 0ebf 50be 4abe
000003b0: bff8 4bbe 6dc5 26bf 4f1c d7bd 31d7 1bbf
000003c0: ec22 10bf 29e9 7abd 4759 f63c 9f1a e8bd
000003d0: e880 e4be 61df d5be e00f e9be 6a19 503d
000003e0: 4a56 8cbc 03e5 90bd b89d 2ebf 4490 44bf
000003f0: 2416 dbbe fa66 9cbe 711c bbbe d0ff 19bf

model.2.weight f4 [256]
0.11583034 0.14585872 0.20368698 0.039578572 0.11522294 0.1677651 0.29036275 0.13352534
0.12649341 0.126422 0.048458945 0.1209574 0.053806383 0.25427434 0.13436641 0.0872952
0.24827883 0.037749674 0.1568451 0.1710464 0.15938886 0.3386097 0.3142018 0.09750183
0.3491258 0.1395668 0.14544287 0.2302956 0.16452372 0.08159664 0.14317305 0.09046838
0.1345609 0.04909359 0.073023945 0.18981008 0.17535064 0.28075588 0.35167938 0.10763934
0.07519767 0.097973265 0.22762692 0.10348768 0.13617359 0.1475119 0.24115807 0.21871877
0.08398389 0.14835778 0.16541685 0.18583338 0.012132734 0.19007996 0.082537934 0.14465287
0.25013354 0.03526497 0.17150101 0.036292743 0.21377361 0.16739033 0.081542864 0.32285106
0.034302346 0.114920534 0.28731963 0.12709068 0.049750462 0.22485577 0.091607936 0.21375802
0.07563782 0.38146406 0.09454922 -0.006600632 0.124015674 0.1585289 0.14802 0.19859214
0.22155994 0.1735215 0.15796867 0.048322685 0.060926486 0.17034554 0.09820275 0.06018043
0.18720911 0.2011687 0.21238157 0.16806257 0.09266462 0.10215302 0.21798347 0.07567169
0.087226085 0.25046992 0.45138672 0.24593318 0.03440336 0.1654428 0.11248759 0.16623488
0.17898944 0.18293662 0.11449298 0.041725032 0.17024037 0.06756183 0.077669315 0.27247253
0.06719119 0.19738308 0.24057978 0.07782451 0.07072101 0.24780495 0.18107569 0.1973743
0.12222009 0.12235723 0.08147158 0.35143456 0.54421645 0.1645402 0.154751 0.19435641
0.04561502 0.087028354 0.2234006 0.05836036 0.3119355 0.067286 0.12073666 0.10283142
0.21776588 0.15612422 0.5730629 0.14677286 0.13251054 0.11933979 0.11556797 0.07116337
0.11624272 0.23660015 0.22914347 0.1564312 0.4161624 0.08970239 0.022991193 0.10249623
0.32833233 0.15693387 0.37213823 0.34546524 0.17978752 0.017393867 0.078743644 0.010462595
0.08907428 0.17277585 0.2546483 0.16256157 0.027561244 0.118494675 0.03853823 0.07740068
0.33313736 0.21533772 0.20410657 0.021477832 0.10591303 0.2520805 0.11771295 0.27570578
0.1887961 0.14077412 0.16997296 0.055780306 0.08503914 0.088618584 0.2701661 0.21836396
0.16589546 0.40417123 0.06172277 0.16750042 0.40052795 0.07429214 0.27363697 0.6141485
0.28666294 0.21831289 0.10932081 0.19751109 0.10718647 0.11529136 0.1757706 0.13815679
0.15839194 0.073105015 0.23414749 0.06006451 0.4225522 0.57269174 0.07107149 0.30486757
0.088592984 0.11010811 0.12797418 0.19499438 0.5919461 0.24943987 0.05842796 0.23694807
0.03538018 0.13526274 0.3910294 0.22317354 0.08805281 0.0920268 0.1594021 0.09331186
0.15945238 0.24091437 0.27037513 0.17031203 0.19869126 0.27066466 0.21112004 0.22330852
0.19702245 0.09390919 0.19831921 0.14632057 0.08367932 0.20500791 0.2896002 0.16563217
0.28467476 0.33103234 0.098825924 0.08278816 0.33320844 0.20578085 0.15253398 0.035321783
0.17419057 0.162658 0.18836188 0.5741289 0.04310675 0.18434544 0.06453268 0.43506837
00000000: 7538 ed3d fd5b 153e 5293 503e 241d 223d
00000010: 01fa eb3d 9dca 2b3e 6daa 943e deba 083e
00000020: 7d87 013e c574 013e e37c 463d 83b8 f73d
00000030: 1564 5c3d 3f30 823e 5997 093e d3c7 b23d
00000040: ce3c 7e3e 679f 1a3d 009c 203e ca26 2f3e
00000050: d536 233e 405e ad3e 0fdf a03e 0aaf c73d
00000060: 9ec0 b23e 99ea 0e3e faee 143e 9cd2 6b3e
00000070: e878 283e 241c a73d f59b 123e 7c47 b93d
00000080: 55ca 093e 5c16 493d 948d 953d 935d 423e
00000090: 1e8f 333e 3cbf 8f3e 520f b43e 0472 dc3d
000000a0: 3c01 9a3d 35a6 c83d 0817 693e 59f1 d33d
000000b0: 1771 0b3e 5c0d 173e 24f2 763e d0f7 5f3e
000000c0: bfff ab3d 1aeb 173e 0963 293e 1b4b 3e3e
000000d0: 60c8 463c 52a4 423e a609 a93d e21f 143e
000000e0: 8111 803e 0072 103d f69d 2f3e b3a7 143d
000000f0: 78e7 5a3e 5f68 2b3e f2ff a63d bc4c a53e
00000100: 9e80 0c3d 755b eb3d 8f1b 933e 0f24 023e
00000110: 24c7 4b3d 9740 663e f19c bb3d 62e3 5a3e
00000120: 00e8 9a3d 424f c33e 05a3 c13d 1d4a d8bb
00000130: eefb fd3d 6655 223e 8e92 173e bd5b 4b3e
00000140: 9ce0 623e 9faf 313e 8ac2 213e 02ee 453d
00000150: 0d8e 793d 106f 2e3e 861e c93d c17f 763d
00000160: bfb3 3f3e 2bff 4d3e 8e7a 593e 9818 2c3e
00000170: f3c6 bd3d 9a35 d13d 0f37 5f3e c2f9 9a3d
00000180: 97a3 b23d 983d 803e 291c e73e e8d5 7b3e
00000190: 8aea 0c3d d669 293e e55f e63d 7a39 2a3e
000001a0: 0249 373e bd53 3b3e 4c7b ea3d dee7 2a3d
000001b0: 7e53 2e3e db5d 8a3d 1711 9f3d 8581 8b3e
000001c0: 899b 893d ca1e 4a3e 8c5a 763e 7562 9f3d
000001d0: 2dd6 903d 95c0 7d3e e86b 393e 7d1c 4a3e
000001e0: 874e fa3d 6d96 fa3d 92da a63d 3bef b33e
000001f0: c551 0b3f 3a7d 283e 0c77 1e3e 5e05 473e
00000200: d1d6 3a3d ec3b b23d 20c3 643e 460b 6f3d
00000210: 03b6 9f3e 3ecd 893d c844 f73d 4899 d23d
00000220: 05fe 5e3e 07df 1f3e 40b4 123f a04b 163e
00000230: d8b0 073e 6b68 f43d e6ae ec3d 1abe 913d
00000240: aa10 ee3d 4f47 723e 96a4 6a3e 802f 203e
00000250: 3d13 d53e e3b5 b73d 0758 bc3c 8be9 d13d
00000260: 2d1b a83e 46b3 203e e788 be3e d2e0 b03e
00000270: 381a 383e 957d 8e3c 5944 a13d 4e6b 2b3c
00000280: 936c b63d 27ec 303e 4361 823e 8a76 263e
00000290: 1ec8 e13c 56ad f23d 43da 1d3d 3f84 9e3d
000002a0: fb90 aa3e 7e81 5c3e 5001 513e 47f2 af3c
000002b0: eee8 d83d b210 813e 7d13 f13d 4f29 8d3e
000002c0: c453 413e 1727 103e 640d 2e3e e479 643d
000002d0: 0029 ae3d a97d b53d 3653 8a3e cd9a 5f3e
000002e0: 80e0 293e 88ef ce3e 04d1 7c3d 3b85 2b3e
000002f0: 0012 cd3e 7a26 983d 251a 8c3e d638 1d3f
00000300: 7cc5 923e 6a8d 5f3e 97e3 df3d 5940 4a3e
00000310: 9484 db3d e01d ec3d 35fd 333e f978 0d3e
00000320: 7f31 223e 15b8 953d 5cc4 6f3e 3406 763d
00000330: c358 d83e ed9b 123f ee8d 913d 9a17 9c3e
00000340: 3d70 b53d 5c80 e13d aa0b 033e 9bac 473e
00000350: c889 173f 2a6d 7f3e 2852 6f3d 84a2 723e
00000360: cfea 103d 5182 0a3e 0135 c83e 9b87 643e
00000370: 0855 b43d 8c78 bc3d 4e3a 233e 4a1a bf3d
00000380: 7c47 233e 42b2 763e 9c6e 8a3e 4766 2e3e
00000390: b975 4b3e 8f94 8a3e da2f 583e fdaa 643e
000003a0: 41c0 493e 7653 c03d 3114 4b3e 0fd5 153e
000003b0: 1060 ab3d 98ed 513e 7a46 943e 7b9b 293e
000003c0: e4c0 913e 127d a93e 3f65 ca3d d78c a93d
000003d0: 4c9a aa3e 37b8 523e de31 1c3e 93ad 103d
000003e0: 035f 323e d28f 263e f0e1 403e 1dfa 123f
000003f0: b490 303d 0dc5 3c3e b629 843d 48c1 de3e

model.2.bias f4 [256]
0.056914896 0.067750864 0.07922444 -0.007735016 0.025594851 0.061209336 0.13390452 0.052709766
0.07694125 0.05204344 -0.0018058105 0.02373586 -0.0003105661 0.103160985 -0.073887065 -0.07301999
0.13338825 -0.007107601 0.059303973 0.075069554 0.074497856 0.2659576 0.045077324 0.03327021
0.017607508 -0.14162293 0.04560055 0.13791355 0.07579521 0.008216878 0.07028497 0.037301414
0.016104221 0.008338887 0.015027857 0.123088084 0.070041984 0.15278652 0.027350098 0.04870232
-0.0003720207 -0.0004291023 0.09023834 0.019786054 0.042382933 0.11376384 0.015156167 0.08567017
0.017527437 0.09088438 0.05474653 0.039516527 0.012511809 0.08575035 0.02610387 0.012135027
0.13474406 -0.03837057 0.07919759 -0.033848997 0.13241617 0.035954744 -0.031393006 0.040637627
-0.0365319 0.013274665 0.20728323 0.048663724 -0.0054168086 0.10518786 0.017826851 0.20958722
-0.026260927 0.17894208 -0.045463424 -0.0061124344 0.043271974 0.01064102 0.097278014 -0.0077633187
0.095265575 0.12076795 0.12044787 -0.009768524 -0.03548975 0.1159033 0.0138403885 -0.00011209707
0.13561656 0.0150944935 0.027239816 0.07253015 0.013405545 0.01730997 0.12095606 -0.060717292
-0.017664187 0.18516454 0.3580117 0.0485861 -0.0035837747 0.096267544 0.019316496 0.048942156
0.08090211 0.12885283 0.0051892563 0.010292507 0.12226874 -0.044000994 0.018976586 0.08391884
2.734887e-07 0.07500092 0.104679815 -0.005827212 -0.02508317 0.1114417 0.07458567 0.062179506
0.09471345 0.06734278 0.021885172 0.22292514 0.11356952 0.099378325 0.07464136 -0.011872977
-0.0016943701 -0.04784862 0.099108756 0.002867491 0.1441736 -0.011330962 0.011816078 0.02543263
0.058141753 0.0645324 0.09490458 0.07807757 0.022574827 0.02619143 0.020122422 -0.0016534098
0.04307745 0.037416864 0.11782264 0.05560461 0.14872137 0.04234869 0.0037598808 0.018189065
0.19545068 0.061784614 0.11767918 0.21733741 0.07099981 0.00472686 -0.086556785 0.0059281946
-0.07736456 0.04354375 0.12146356 0.076697454 -0.009282589 0.04941591 -0.03207192 0.01728209
0.09383099 0.06169811 0.1018499 -0.005853686 0.04305685 0.09697279 -0.092352554 0.23566703
-0.026227614 -0.044466548 0.094949685 -0.016452592 0.025076088 0.028333839 0.111090794 0.10638151
0.04492064 0.12185877 -0.05356872 0.031842187 0.45067173 -0.0029708473 0.022903277 0.11156247
0.14313586 0.02049476 0.015676783 0.03507167 -0.092370026 -0.00050566596 0.08569883 0.04394494
0.09816609 -0.041972768 0.03842992 -0.040284194 0.16126868 0.111423664 0.024457037 0.29830694
0.042706747 0.038830947 0.029333638 0.109153725 0.1217587 0.09944754 0.0013533378 0.07592416
-0.031676084 0.0043303175 0.11447006 0.041595485 0.019714398 0.05180942 0.14502002 -0.04901034
0.054666758 0.113075346 0.14465801 0.057129495 0.10003526 0.043245953 0.13436751 0.07805538
0.053354077 0.059438393 0.058685623 0.009620407 -0.030542184 0.021722352 0.15603375 0.031658422
-0.08917301 0.18100138 0.0104567995 -0.023122082 0.12085756 0.07527835 0.002403321 0.027353179
0.114556625 0.06736874 -0.0020091396 0.087590575 -0.003930683 0.083003424 -0.012234376 0.12464077
00000000: 981f 693d f7c0 8a3d 6c40 a23d 0476 fdbb
00000010: 4bac d13c a4b6 7a3d 441e 093e 32e6 573d
00000020: 6093 9d3d 812b 553d f2b0 ecba b571 c23c
00000030: 7ad3 a2b9 1146 d33d 1a52 97bd 818b 95bd
00000040: ee96 083e e1e6 e8bb b9e8 723d 11be 993d
00000050: 5592 983d 982b 883e 00a3 383d 5846 083d
00000060: 9f3d 903c 9a05 11be a4c7 3a3d 3639 0d3e
00000070: 853a 9b3d 16a0 063c 91f1 8f3d 5ec9 183d
00000080: 00ed 833c d49f 083c 6737 763c 9b15 fc3d
00000090: 2c72 8f3d 1274 1c3e 500d e03c 157c 473d
000000a0: c60b c3b9 23f9 e0b9 e1ce b83d 5d16 a23c
000000b0: ba99 2d3d 04fd e83d 9251 783c d873 af3d
000000c0: b395 8f3c 9721 ba3d e63d 603d 15dc 213d
000000d0: 55fe 4c3c e19d af3d c8d7 d53c fed1 463c
000000e0: 59fa 093e 752a 1dbd 5932 a23d 3fa5 0abd
000000f0: 1b98 073e 4845 133d f495 00bd a473 263d
00000100: 79a2 15bd fb7d 593c 0e42 543e 9d53 473d
00000110: 7c7f b1bb bc6c d73d 9e09 923c 089e 563e
00000120: 2821 d7bc 983c 373e db37 3abd d14a c8bb
00000130: f43d 313d ac57 2e3c b239 c73d 7063 febb
00000140: 991a c33d 3055 f73d 5fad f63d 290c 20bc
00000150: b35d 11bd b65e ed3d ccc2 623c a815 ebb8
00000160: 11df 0a3e e54e 773c 0926 df3c b08a 943d
00000170: eea2 5b3c a3cd 8d3c d0b7 f73d b2b2 78bd
00000180: 7cb4 90bc c69b 3d3e 4f4d b73e 3802 473d
00000190: c3dd 6abb eb27 c53d a13d 9e3c 9277 483d
000001a0: 01b0 a53d fff1 033e a30a aa3b e7a1 283c
000001b0: 0868 fa3d 633a 34bd c974 9b3c a4dd ab3d
000001c0: 00d4 9234 159a 993d 5f62 d63d 32f2 bebb
000001d0: 387b cdbc 8c3b e43d 5fc0 983d f0af 7e3d
000001e0: 20f9 c13d 03eb 893d 8848 b33c 7d46 643e
000001f0: 2397 e83d dd86 cb3d 92dd 983d e086 42bc
00000200: a015 deba eafc 43bd 88f9 ca3d 84ec 3b3b
00000210: 3fa2 133e 80a5 39bc 3998 413c 1758 d03c
00000220: 0c26 6e3d 9029 843d 555d c23d 22e7 9f3d
00000230: d8ee b83c 698f d63c c7d7 a43c 3ab7 d8ba
00000240: fb71 303d 6d42 193d ff4c f13d a9c1 633d
00000250: 6a4a 183e d275 2d3d 5568 763b 3c01 953c
00000260: 3924 483e dd11 7d3d c801 f13d b38d 5e3e
00000270: 5968 913d c7e3 9a3b af44 b1bd 4d41 c23b
00000280: 4f71 9ebd ee5a 323d e3c1 f83d 8e13 9d3d
00000290: 0016 18bc 5668 4a3d d85d 03bd 2b93 8d3c
000002a0: 762a c03d 28b7 7c3d ae96 d03d 47d0 bfbb
000002b0: 615c 303d ac99 c63d 5623 bdbd b352 713e
000002c0: 4bdb d6bc 8e22 36bd fb74 c23d 96c7 86bc
000002d0: 5e6c cd3c 5e1c e83c 9283 e33d 8dde d93d
000002e0: b4fe 373d 1791 f93d e06a 5bbd f46c 023d
000002f0: 72be e63e 8cb2 42bb a79f bb3c dd7a e43d
00000300: 3592 123e a0e4 a73c 996c 803c 50a7 0f3d
00000310: 7f2c bdbd ab8e 04ba de82 af3d 9cff 333d
00000320: 4e0b c93d a3eb 2bbd b168 1d3d 0a01 25bd
00000330: 9e23 253e 1732 e43d 205a c83c b0bb 983e
00000340: 45ed 2e3d 330d 1f3d 194d f03c fd8b df3d
00000350: a05c f93d 27ab cb3d 7b62 b13a 207e 9b3d
00000360: c8be 01bd 56e5 8d3b 476f ea3d 0760 2a3d
00000370: 1780 a13c 1d36 543d 2180 143e 11bf 48bd
00000380: 40ea 5f3d 0c94 e73d 3b21 143e 9e00 6a3d
00000390: 49df cc3d ab22 313d a397 093e 80db 9f3d
000003a0: ce89 5a3d ac75 733d 5660 703d e99e 1d3c
000003b0: 9a33 fabc 13f3 b13c 50c7 1f3e 43ac 013d
000003c0: 57a0 b6bd 6d58 393e ff52 2b3c 856a bdbc
000003d0: 2b84 f73d 892b 9a3d 0981 1d3b c613 e03c
000003e0: aa9c ea3d 9ff8 893d c5ab 03bb b062 b33d
000003f0: f5cc 80bb b3fd a93d b172 48bc a943 ff3d

model.2.running_mean f4 [256]
0.38148585 0.10553745 0.106854245 0.34848452 0.37243494 0.029084714 0.12360159 0.20168863
0.23509736 0.3002822 0.1421682 0.032307588 0.37534186 0.16836937 0.30447665 0.19453223
0.297153 0.1893025 0.28087926 0.08439236 0.44319412 0.32679737 0.013551796 0.28513724
0.013809757 0.50127006 0.20020676 0.2330766 0.47322902 0.24233517 0.38244703 0.3974406
0.038885728 0.334826 0.2007502 0.43520057 0.3389278 0.200992 0.021593174 0.13073377
0.55398303 0.039232742 0.09329828 0.29215926 0.22490694 0.48677623 0.0052488153 0.10375837
0.4174851 0.4145513 0.1325794 0.053268354 0.47998297 0.24100155 0.3464609 0.009603821
0.26106536 0.19016546 0.19964296 0.4271005 0.21691445 0.051547024 0.2423836 0.010451362
0.18292071 0.20314798 0.22574644 0.30200058 0.38856298 0.4400563 0.35542655 0.46437126
0.25989842 0.13024268 0.2956206 0.38978386 0.34001166 0.020201042 0.80081356 0.03660796
0.31836006 0.5833152 0.77734214 0.043847606 0.14671537 0.5596069 0.19800405 0.37177008
0.5484562 0.02160387 0.039984625 0.21202745 0.2724266 0.18726014 0.52547634 0.3539757
0.2867506 0.37123844 0.44700143 0.03779846 0.39353648 0.12988743 0.09280106 0.007822614
0.2015461 0.32581776 0.5434298 0.4211235 0.617468 0.32913756 0.07495957 0.023844132
0.016095728 0.06850939 0.4783779 0.3551693 0.4293343 0.24274144 0.18026438 0.025478095
0.47020727 0.34374306 0.31230897 0.15968925 0.0060524843 0.15314859 0.2927028 0.037993535
0.27673388 0.18699242 0.14292015 0.33026555 0.106510445 0.22367801 0.02403693 0.06305659
0.17850098 0.29404837 0.010207085 0.5563616 0.15870397 0.087944284 0.08018105 0.37165916
0.14517953 0.02500483 0.4556324 0.09976464 0.043622583 0.22925477 0.1633689 0.36535463
0.27421618 0.16496706 0.02503276 0.1562843 0.11635299 0.28037202 0.27471632 0.33492395
0.5261405 0.020810165 0.15331857 0.4113663 0.18932429 0.38508117 0.07435252 0.1833143
0.054553807 0.061924003 0.19809574 0.3573488 0.45279512 0.36028302 0.3319819 0.42206
6e-45 0.03832231 0.11597119 0.45882848 0.533751 0.081674434 0.13627672 0.118466094
0.06761132 0.02579909 0.40371758 0.20666921 0.6735948 0.24164075 0.0030571695 0.004148531
0.2155156 0.027164519 0.4878595 0.05671047 0.30250496 0.010561999 0.11808215 0.13465288
0.48430035 0.16403279 1.2516597e-05 0.061128885 0.040701117 0.0055754096 0.12324953 0.57333857
0.17317131 0.07719234 0.031837545 0.14733434 0.008241274 0.11018029 0.312407 0.13530609
0.42990243 0.04286095 0.0422424 0.022272354 0.4298543 0.52443963 0.32806608 0.47302088
0.22793366 0.15054788 0.46755683 0.11569732 0.118717104 0.006592018 0.42065725 0.20270592
0.082335874 0.20794798 0.023875829 0.21168537 0.13723376 0.021935321 0.25640655 0.04712802
0.051113468 0.31307217 0.30269507 0.25612563 0.08046712 0.083124846 0.03815151 0.30936778
0.34876823 0.31781426 0.002818042 0.005415886 0.07142627 0.17061798 0.15591401 0.021229077
00000000: 1d52 c33e 0524 d83d 66d6 da3d 906c b23e
00000010: cbaf be3e 1143 ee3c d522 fd3d 7787 4e3e
00000020: 5dbd 703e 97be 993e 8a94 113e f654 043d
00000030: cf2c c03e 0569 2c3e 5de4 9b3e 7533 473e
00000040: 7024 983e 84d8 413e 68cf 8f3e e7d5 ac3d
00000050: 57ea e23e fc51 a73e 5a08 5e3c 82fd 913e
00000060: 5242 623c 3c53 003f 0003 4d3e a2ab 6e3e
00000070: 134b f23e b626 783e 19d0 c33e 567d cb3e
00000080: a446 1f3d 506e ab3e 7691 4d3e 9cd2 de3e
00000090: f287 ad3e d9d0 4d3e 2be4 b03c 13df 053e
000000a0: d5d1 0d3f 83b2 203d 2b13 bf3d e695 953e
000000b0: 014e 663e bc3a f93e 41fe ab3b 457f d43d
000000c0: 9bc0 d53e 1140 d43e e5c2 073e eb2f 5a3d
000000d0: 54c0 f53e 1cc9 763e 5363 b13e 5859 1d3c
000000e0: 5caa 853e bcba 423e 346f 4c3e ebac da3e
000000f0: d21e 5e3e f922 533d 6833 783e 303c 2b3c
00000100: 914f 3b3e 0606 503e 132a 673e d29f 9a3e
00000110: baf1 c63e 0f4f e13e 78fa b53e 12c2 ed3e
00000120: 6811 853e 565e 053e 955b 973e c091 c73e
00000130: 0216 ae3e a87c a53c 1e02 4d3f 3af2 153d
00000140: 1700 a33e 2554 153f e5ff 463f 8c99 333d
00000150: 8e3c 163e 6642 0f3f 93c1 4a3e a658 be3e
00000160: a067 0c3f 99fa b03c ebc6 233d b91d 593e
00000170: 807b 8b3e 1fc1 3f3e 9e85 063f 4e3c b53e
00000180: fad0 923e f712 be3e 5fdd e43e 8fd2 1a3d
00000190: 9d7d c93e 3601 053e 7b0e be3d 6c2a 003c
000001a0: 1a62 4e3e 96d1 a63e 371e 0b3f 809d d73e
000001b0: 6212 1e3f b884 a83e 6784 993d c554 c33c
000001c0: 30db 833c a74e 8c3d f3ed f43e c0d8 b53e
000001d0: b5d1 db3e 3691 783e 3a97 383e 70b7 d03c
000001e0: 02bf f03e 17ff af3e f6e6 9f3e 9485 233e
000001f0: eb53 c63b fcd2 1c3e 24dd 953e 1c9f 1b3d
00000200: 10b0 8d3e f17a 3f3e a959 123e 9118 a93e
00000210: 2622 da3d d90b 653e 19e9 c43c d023 813d
00000220: f6c8 363e 828d 963e 9e3b 273c b76d 0e3f
00000230: 4b83 223e 221c b43d f635 a43d 1c4a be3e
00000240: f1a9 143e eed6 cc3c a648 e93e 6751 cc3d
00000250: 98ad 323d c3c1 6a3e 2d4a 273e c30f bb3e
00000260: 1066 8c3e 20ed 283e 8111 cd3c fe08 203e
00000270: 7a4a ee3d ec8c 8f3e 9ea7 8c3e 277b ab3e
00000280: 25b1 063f 147a aa3c 8bff 1c3e 9b9e d23e
00000290: 3ade 413e 5c29 c53e 2246 983d beb6 3b3e
000002a0: d073 5f3d 06a4 7d3d 9cd9 4a3e 6cf6 b63e
000002b0: c3d4 e73e 0477 b83e 88f9 a93e 4018 d83e
000002c0: 0400 0000 dbf7 1c3d 4e82 ed3d 91eb ea3e
000002d0: e8a3 083f ed44 a73d 208c 0b3e 5a9e f23d
000002e0: ce77 8a3d 9d58 d33c 12b4 ce3e 18a1 533e
000002f0: b570 2c3f ac70 773e cb5a 483b 66f0 873b
00000300: 1fb0 5c3e 2088 de3c b8c8 f93e 3d49 683d
00000310: eee1 9a3e 3c0c 2d3c 0ed5 f13d 72e2 093e
00000320: 37f6 f73e 36f8 273e 60fe 5137 4862 7a3d
00000330: 37b6 263d edb1 b63b 406a fc3d 51c6 123f
00000340: d253 313e 0417 9e3d 1668 023d d0de 163e
00000350: 6906 073c 34a6 e13d cff3 9f3e ae8d 0a3e
00000360: 2c1c dc3e f78e 2f3d 5e06 2d3d 8374 b63c
00000370: dd15 dc3e ad41 063f 47f8 a73e cb2f f23e
00000380: 7167 693e 3929 1a3e 9c63 ef3e b7f2 ec3d
00000390: f421 f33d db01 d83b 6360 d73e 2492 4f3e
000003a0: b69f a83d 51f0 543e 3e97 c33c 0dc4 583e
000003b0: 0287 0c3e b4b1 b33c b847 833e 5009 413d
000003c0: 5b5c 513d ff4a a03e d9fa 9a3e e622 833e
000003d0: f2cb a43d 5c3d aa3d c244 1c3d 7465 9e3e
000003e0: c091 b23e 8db8 a23e e6ae 383b bf77 b13b
000003f0: f047 923d 7bb6 2e3e eca7 1f3e 9ae8 ad3c

model.2.running_var f4 [256]
0.23415945 0.06835578 0.042943906 0.27087787 0.08285693 0.015006354 0.037706584 0.12697287
0.17357107 0.2043266 0.07437838 0.01086899 0.16533484 0.09635302 0.14998248 0.09502134
0.1706992 0.12958695 0.19766046 0.043426756 0.29887214 0.13385102 0.004125211 0.106109746
0.003554031 0.36556607 0.11251926 0.04645497 0.2869421 0.19159302 0.19758834 0.24454854
0.019879421 0.2889278 0.14486143 0.17296398 0.2656679 0.070699684 0.0079052765 0.06604148
0.464345 0.02078505 0.03667502 0.15328622 0.13595977 0.19526063 0.0012299728 0.049529918
0.35223612 0.19502695 0.08542307 0.03250992 0.1838478 0.10042496 0.12166571 0.0031341661
0.14048593 0.09441886 0.11868836 0.19204383 0.087444216 0.02820064 0.13787328 0.0023108348
0.10951702 0.1715532 0.06272761 0.13866414 0.32252058 0.32137722 0.2533827 0.242486
0.111541845 0.058699977 0.14448501 0.16682677 0.1975127 0.008079467 0.19143766 0.013927395
0.18152212 0.2489572 0.21880648 0.019774646 0.112637505 0.20863543 0.07851694 0.36849585
0.19649252 0.010316949 0.02214129 0.11948553 0.17264222 0.07095276 0.34665588 0.1984747
0.18831655 0.14713502 0.20837542 0.014290181 0.18379499 0.051473796 0.04838797 0.0015008962
0.08260867 0.1474794 0.2880628 0.4386114 0.30105513 0.15301645 0.054545283 0.0036039823
0.0049254615 0.023340875 0.5028911 0.26200828 0.20537512 0.09906803 0.08837323 0.012256182
0.21953118 0.19002278 0.17416763 0.04578635 0.00053044176 0.059406053 0.1336284 0.015209189
0.12132638 0.09678029 0.0500312 0.27715325 0.05032713 0.141693 0.009054601 0.035364825
0.108262815 0.18718074 0.0013073252 0.22452852 0.08671562 0.058754746 0.041219022 0.16268706
0.064716704 0.008051518 0.26308113 0.043586317 0.012054453 0.09609098 0.10391387 0.22014554
0.16509181 0.119911045 0.00609062 0.04636035 0.049724985 0.15021119 0.2319697 0.20294563
0.29171005 0.008348879 0.061904687 0.28675047 0.096540086 0.237564 0.041762378 0.11548999
0.018088374 0.03011821 0.108979344 0.32965222 0.37467247 0.4254062 0.21039453 0.1787934
6e-45 0.011508918 0.05676502 0.38051766 0.24948736 0.029269796 0.07076837 0.04457137
0.024282461 0.006782874 0.3222341 0.15525062 0.23912887 0.20524535 0.00053701625 0.00030270297
0.11428049 0.0076929424 0.3670702 0.030225268 0.16086884 0.0022639148 0.046278894 0.062319655
0.19488043 0.1280366 4.3323817e-07 0.040857054 0.011555551 0.00060503895 0.066574454 0.1931366
0.11225802 0.05325354 0.015552359 0.04441093 0.0008488895 0.047866736 0.1840573 0.08056386
0.1746227 0.020473722 0.016034953 0.011754454 0.2451398 0.2924772 0.14022025 0.37207317
0.1810176 0.058438275 0.3147976 0.0637268 0.051605903 0.00089016755 0.19417502 0.108263545
0.045410153 0.12276083 0.0077501475 0.09759555 0.08973874 0.010632942 0.10251474 0.023775425
0.009197067 0.21014988 0.20691459 0.16001901 0.031129995 0.035418443 0.030594124 0.1794509
0.12833002 0.1266828 0.0007534102 0.0004884309 0.043712277 0.08970783 0.07038704 0.0051244427
00000000: 7fc7 6f3e 1dfe 8b3d f3e5 2f3d 81b0 8a3e
00000010: e5b0 a93d 36dd 753c 3872 1a3d 2d05 023e
00000020: 9dbc 313e fe3a 513e b153 983d d913 323c
00000030: 894d 293e bb54 c53d 0295 193e 8c9a c23d
00000040: c5cb 2e3e 71b2 043e 8167 4a3e 41e0 313d
00000050: c505 993e 3e10 093e c72c 873b 1150 d93d
00000060: bfea 683b 7a2b bb3e 7f70 e63d 9147 3e3d
00000070: 13ea 923e f630 443e 9954 4a3e ef6a 7a3e
00000080: 2bda a23c 58ee 933e 8e56 143e 781d 313e
00000090: 9f05 883e ffca 903d 2285 013c c140 873d
000000a0: a1be ed3e 6945 aa3c 8c38 163d 10f7 1c3e
000000b0: 0a39 0b3e 67f2 473e 0a37 a13a e2df 4a3d
000000c0: 4b58 b43e 25b5 473e 4af2 ae3d 1f29 053d
000000d0: 9942 3c3e 9aab cd3d df2b f93d 9566 4d3b
000000e0: 8bdb 0f3e ad5e c13d e212 f33d 23a7 443e
000000f0: f415 b33d 0705 e73c a72e 0d3e 6071 173b
00000100: 764a e03d a4ab 2f3e 5577 803d f9fd 0d3e
00000110: 6b21 a53e 8e8b a43e 61bb 813e 404e 783e
00000120: 0d70 e43d 636f 703d e1f3 133e a3d4 2a3e
00000130: c540 4a3e be5f 043c 3c08 443e bb2f 643c
00000140: efe0 393e a3ee 7e3e ce0e 603e 70fe a13c
00000150: 7eae e63d 87a4 553e 7dcd a03d 7dab bc3e
00000160: 5635 493e 6c08 293c a761 b53c d4b4 f43d
00000170: 1fc9 303e ae4f 913d e17c b13e f43c 4b3e
00000180: 0ed6 403e 90aa 163e 5e60 553e 5d21 6a3c
00000190: c134 3c3e 30d6 523d 7732 463d b8b9 c43a
000001a0: bc2e a93d d704 173e f87c 933e ac91 e03e
000001b0: e623 9a3e 58b0 1c3e e06a 5f3d ca30 6c3b
000001c0: c465 a13b 5d35 bf3c 79bd 003f f325 863e
000001d0: db4d 523e 2ee4 ca3d 06fd b43d 27ce 483c
000001e0: c8cc 603e 5595 423e 0059 323e 788a 3b3d
000001f0: 580d 0b3a c353 733d e2d5 083e f62f 793c
00000200: f779 f83d bf34 c63d 84ed 4c3d 08e7 8d3e
00000210: d223 4e3d f817 113e c059 143c b5da 103d
00000220: e5b8 dd3d 4fac 3f3e 8e5a ab3a ceea 653e
00000230: f597 b13d d1a8 703d 47d5 283d 7097 263e
00000240: 318a 843d 84ea 033c 92b2 863e 9187 323d
00000250: 0a80 453c 59cb c43d ccd0 d43d d56d 613e
00000260: d40d 293e ec93 f53d d393 c73b 5ae4 3d3d
00000270: 6dac 4b3d f6d0 193e 7789 6d3e fbd0 4f3e
00000280: 055b 953e bdc9 083c c58f 7d3d f5d0 923e
00000290: cfb6 c53d fa43 733e 070f 2b3d 0486 ec3d
000002a0: 122e 943c 77ba f63c 9030 df3d 2dc8 a83e
000002b0: 12d5 bf3e d7ce d93e aa71 573e 9e15 373e
000002c0: 0400 0000 e78f 3c3c 7082 683d 36d3 c23e
000002d0: 9d79 7f3e 36c7 ef3c 02ef 903d 7890 363d
000002e0: 03ec c63c df42 de3b defb a43e 05fa 1e3e
000002f0: 33de 743e d62b 523e 8dc6 0c3a 1bb4 9e39
00000300: e40b ea3d 1415 fc3b a0f0 bb3e fb9a f73c
00000310: cdba 243e 305e 143b f08e 3d3d e542 7f3d
00000320: bc8e 473e 071c 033e cd97 e834 ba59 273d
00000330: 7e53 3d3c 7a9b 1e3a 3058 883d 9ac5 453e
00000340: 88e7 e53d 6220 5a3d 52cf 7e3c 3ce8 353d
00000350: 0388 5e3a e90f 443d 8479 3c3e aafe a43d
00000360: 4bd0 323e 82b8 a73c bc5b 833c c195 403c
00000370: ed05 7b3e 92bf 953e e695 0f3e 6080 be3e
00000380: ae5c 393e f95c 6f3d 272d a13e 3283 823d
00000390: b660 533d 225a 693a d1d5 463e 47b9 dd3d
000003a0: ffff 393d 086a fb3d f3f4 fd3b 2de0 c73d
000003b0: f2c8 b73d cb35 2e3c 3ff3 d13d aec4 c23c
000003c0: 4baf 163c 8831 573e 6be1 533e 06dc 233e
000003d0: 5504 ff3c ee12 113d 87a0 fa3c fac1 373e
000003e0: f268 033e 23b9 013e 8180 453a 0b0a 003a
000003f0: a50b 333d bdb8 b73d 1527 903d f1ea a73b

model.4.weight f4 [128, 256]
0.058210205 -0.02859532 0.10893185 -0.05715141 -0.02923212 -0.02768876 -0.091952704 0.008089663
0.06334194 0.040386874 -0.12696731 0.03693722 0.0029057325 -0.047160752 0.053320006 0.0767277
0.051324487 -0.15427144 -0.076574445 -0.005715064 0.03761964 0.03450419 0.054048102 0.06949701
0.032107815 -0.014349788 0.084637575 -0.0712582 -0.29299554 -0.058230747 0.055880155 -0.021392765
0.083001226 0.05201642 -0.0739308 -0.014328072 0.03865928 -0.18147437 0.1276975 -0.09275099
0.011297587 0.048031766 -0.024324713 -0.17872494 0.039544754 0.038156286 0.005443978 0.04192546
-0.028493691 0.064350806 -0.15748407 0.11462098 -0.10575352 0.008264747 -0.007024704 0.051997345
0.14735341 -0.0054770373 -0.07179993 0.084684655 -0.030243693 -0.0715283 -0.076227725 0.033568148
0.021179657 -0.23677304 -0.044763934 -0.28880695 0.01818787 -0.019258663 -0.016160324 0.04990772
-0.14570051 0.00023051846 -0.08426546 -0.051115565 -0.041818965 -0.088015616 0.021373492 -0.25295606
-0.059081465 0.029249227 -0.024484314 -0.02236323 -0.10809801 -0.025454458 0.03834482 -0.03565041
-0.0050303196 -0.18799816 -0.06861566 -0.20410037 0.06538578 -0.17638779 0.03164055 -0.0251506
-0.16065457 -0.048190232 0.0062076664 -0.01642454 -0.020162055 0.008215224 0.1353543 -0.04953089
-0.45012715 0.05084423 -0.0009938481 -0.100595236 0.050644286 0.021482555 -0.12727043 0.12748437
-0.011773231 0.056724407 -0.027510501 -0.07283584 -0.10812393 -0.5278977 -0.39532092 -0.02172707
0.027203629 0.011990794 0.10871072 -0.14529933 0.047958322 0.020205976 0.0084192725 -0.10161922
0.09335572 -0.08255222 -0.051560994 -0.0027500894 -0.077890545 0.019318888 -0.0063833157 -0.23848811
-0.24667712 0.008822975 0.06709031 -0.075165056 0.11612893 0.029823234 0.1004272 0.011557441
0.014995242 -0.03742084 0.091874324 -0.0055283178 0.07575457 0.031001484 0.059672743 0.019200055
0.009982938 -0.14859287 -0.062233884 -0.15492275 0.0046255407 0.07125703 -0.050795667 -0.019982167
-0.024774658 -0.004172469 -0.021900352 0.06879665 -0.05816736 -0.0068217264 -0.014624991 -0.040762108
-0.2831301 -0.21304788 0.009285431 -0.036263246 -0.05979008 -0.085758545 -0.11185911 0.0022259583
-0.04120558 0.13459021 0.017474947 -0.019457836 -0.13284558 -0.13822891 -0.22092554 -0.054019287
0.0062372964 -0.039028995 -0.063084595 -0.14467536 0.030398155 -0.023514932 -0.024490051 0.028800128
-0.00030690525 0.044539284 -0.11348218 -0.021338303 0.023668384 -0.20435825 0.0722756 0.04012477
0.016125437 -0.13215226 -0.10939125 0.0539484 -0.28216857 0.06155975 0.05507987 0.054130062
-0.005869362 -0.111921296 -0.051128823 -0.03738019 0.0414219 0.044256408 -0.12564093 0.081334084
0.027493495 -0.12819612 -0.014655814 -0.092060775 -0.07737949 0.058604326 0.021789517 -0.004119928
-0.13698658 -0.014626482 0.06369743 -0.26581818 -0.063824005 0.005581139 -0.07481855 0.10444521
-0.057513293 -0.057705343 -0.2034467 -0.0805359 -0.1864441 -0.07100142 0.0043327007 -0.058774255
-0.025381248 -0.016681973 0.0320895 -0.071388945 -0.3214084 -0.023186466 0.0004898658 -0.058764078
0.011394252 -0.051839344 -0.12199286 0.010269541 0.040990848 -0.06369894 -0.021045392 -0.050641444
00000000: d36d 6e3d bc40 eabc a917 df3d 9917 6abd
00000010: 3378 efbc 8ad3 e2bc b351 bcbd 828a 043c
00000020: 6bb9 813d b56c 253d b803 02be 7b4b 173d
00000030: 1a6e 3e3b a22b 41bd 1466 5a3d 6a23 9d3d
00000040: a039 523d 55f9 1dbe 10d3 9cbd 6e45 bbbb
00000050: 0d17 1a3d 4454 0d3d 8b61 5d3d 7354 8e3d
00000060: 7c83 033d 601b 6bbc 7756 ad3d d2ef 91bd
00000070: 8303 96be 5d83 6ebd 97e2 643d e13f afbc
00000080: 8cfc a93d 2b0f 553d 0869 97bd 4ac0 6abc
00000090: 3159 1e3d 6bd4 39be 22c3 023e 3bf4 bdbd
000000a0: 8419 393c f5bc 443d 9f44 c7bc ac03 37be
000000b0: aef9 213d c449 1c3d 6663 b23b 08ba 2b3d
000000c0: 9a6b e9bc 5bca 833d 8143 21be 68be ea3d
000000d0: 4d95 d8bd dd68 073c 7d2f e6bb 2bfb 543d
000000e0: d0e3 163e b878 b3bb d70b 93bd 266f ad3d
000000f0: 9fc1 f7bc 6e7d 92bd 481d 9cbd c17e 093d
00000100: f680 ad3c a274 72be 635a 37bd 81de 93be
00000110: bafe 943c 58c4 9dbc a862 84bc 0a6c 4c3d
00000120: 8432 15be 54b7 7139 5f93 acbd 8e5e 51bd
00000130: 5d4a 2bbd 8841 b4bd 7617 af3c 7583 81be
00000140: 68ff 71bd 139c ef3c 5493 c8bc 1833 b7bc
00000150: 7d62 ddbd de85 d0bc 750f 1d3d 2a06 12bd
00000160: 61d5 a4bb 9782 40be 5e86 8cbd b0ff 50be
00000170: fbe8 853d 009f 34be 8599 013d a208 cebc
00000180: a282 24be 1f63 45bd ae69 cb3b c28c 86bc
00000190: e52a a5bc 2699 063c 519a 0a3e e7e0 4abd
000001a0: 1177 e6be 0a42 503d 0244 82ba e004 cebd
000001b0: 6270 4f3d 2ffc af3c 2e53 02be 438b 023e
000001c0: 83e4 40bc da57 683d b45d e1bc f52a 95bd
000001d0: 1470 ddbd 4e24 07bf 8167 cabe f8fc b1bc
000001e0: 25da de3c 0975 443c baa3 de3d 59c9 14be
000001f0: f26f 443d 0187 a53c fdf0 093c bd1d d0bd
00000200: 4931 bf3d 2311 a9bd 9f31 53bd d83a 34bb
00000210: 1485 9fbd a542 9e3c 222b d1bb 3a36 74be
00000220: ed98 7cbe 3d8e 103c a566 893d 23f0 99bd
00000230: 01d5 ed3d db4f f43c c7ac cd3d 6c5b 3d3c
00000240: 9aae 753c 9846 19bd 9b28 bc3d e426 b5bb
00000250: 3625 9b3d d3f6 fd3c 686b 743d 6f49 9d3c
00000260: 7a8f 233c bb28 18be f5e8 7ebd 12a4 1ebe
00000270: d991 973b 35ef 913d 1e0f 50bd a4b1 a3bc
00000280: 39f4 cabc 35b9 88bb 5e68 b3bc 42e5 8c3d
00000290: e640 6ebd ca88 dfbb a99d 6fbc 2bf6 26bd
000002a0: 6ef6 90be 3929 5abe ec21 183c c588 14bd
000002b0: 71e6 74bd 2da2 afbd 6416 e5bd 62e1 113b
000002c0: 2fc7 28bd 04d2 093e 9f27 8f3c 0a66 9fbc
000002d0: ac08 08be e18b 0dbe 4e3a 62be 5443 5dbd
000002e0: 3c62 cc3b dedc 1fbd 7f32 81bd c725 14be
000002f0: 8d05 f93c 63a2 c0bc 5c9f c8bc 3fee eb3c
00000300: 20e8 a0b9 d36e 363d 5869 e8bd aacd aebc
00000310: 33e4 c13c 4a43 51be 3b05 943d df59 243d
00000320: 7e19 843c ec52 07be 8508 e0bd fff8 5c3d
00000330: 6678 90be 1426 7c3d 6e9b 613d 7cb7 5d3d
00000340: c753 c0bb fe36 e5bd 756c 51bd f81b 19bd
00000350: 03aa 293d 3546 353d 04a8 00be 7c92 a63d
00000360: 0a3a e13c d845 03be f01e 70bc 5c8a bcbd
00000370: 2379 9ebd 170b 703d ee7f b23c 7600 87bb
00000380: 3646 0cbe e9a3 6fbc cc73 823d 5219 88be
00000390: 29b6 82bd fde1 b63b 783a 99bd 5fe7 d53d
000003a0: 0f93 6bbd 705c 6cbd 5554 50be 02f0 a4bd
000003b0: 34eb 3ebe 3169 91bd 54f9 8d3b 46bd 70bd
000003c0: 56ec cfbc a2a8 88bc 4870 033d 5e34 92bd
000003d0: a48f a4be 8bf1 bdbc 566a 003a 9ab2 70bd
000003e0: f5ae 3a3c 7e55 54bd 65d7 f9bd 9441 283c
000003f0: 05e6 273d 9774 82bd 6367 acbc 676d 4fbd

model.4.bias f4 [128]
-0.113491304 -0.23336387 -0.13138849 -0.43125716 -0.18832444 -0.12756442 -0.15375894 -0.2152826
-0.0757706 -0.17953107 -0.30712187 -0.25525287 -0.079375446 -0.28403765 -0.3058409 -0.065872446
-0.14179398 -0.3012326 -0.0489476 -0.12780273 -0.12454781 -0.098639876 -0.2666201 -0.14269207
-0.081249736 -0.025737341 -0.1939998 -0.2850346 -0.05956603 -0.19071425 -0.09576754 -0.1399238
0.0013812472 -0.10694218 -0.1215547 -0.13371721 0.03919219 -0.2942492 -0.15395665 -0.32468605
-0.053542566 -0.25873765 -0.08725664 -0.1310229 -0.17643298 -0.13286284 -0.09608341 -0.21915425
-0.20806289 -0.062051695 0.038979944 -0.26214844 -0.32971904 -0.26549223 -0.2210088 -0.2582065
-0.084568635 -0.053644728 -0.22207373 -0.12470788 -0.24776709 -0.15688777 -0.25745797 -0.19112477
-0.044050865 -0.19160509 -0.09956976 -0.05337356 -0.14396901 -0.100359716 -0.2270124 -0.1802337
0.0085570095 -0.24618465 -0.07366253 -0.14772713 -0.24341361 -0.2614239 -0.3907269 -0.04732711
-0.27893043 0.019214096 -0.19412154 -0.29211465 -0.3328359 -0.082898155 -0.16451931 -0.016558418
-0.3343021 -0.19869605 -0.34734175 0.020584228 -0.19711654 -0.25646973 -0.052731935 0.0052493596
-0.22935887 -0.0058078393 0.04876863 -0.28378755 -0.2386915 -0.08725504 -0.20329437 -0.23754124
-0.07612178 -0.21860866 0.0009820994 -0.21814108 -0.27306837 -0.23543292 -0.25914916 -0.1864452
-0.112602755 -0.25469476 -0.07852823 -0.17745371 -0.078709796 -0.23094976 -0.11162997 -0.32330745
-0.108017914 -0.19606887 -0.21443604 -0.18730995 -0.23794769 -0.14161369 -0.11289141 -0.17747718
00000000: 216e e8bd f0f6 6ebe b48a 06be bdcd dcbe
00000010: 1fd8 40be 3fa0 02be fc72 1dbe 0b73 5cbe
00000020: 9e2d 9bbd fed6 37be 143f 9dbe 81b0 82be
00000030: 988f a2bd 626d 91be 2e97 9cbe 22e8 86bd
00000040: 7132 11be 293b 9abe 477d 48bd b8de 02be
00000050: ec12 ffbd b403 cabd 6e82 88be df1d 12be
00000060: 4366 a6bd 1ed7 d2bc e2a7 46be 0ef0 91be
00000070: 82fb 73bd 994a 43be c621 c4bd 2f48 0fbe
00000080: f70a b53a 8004 dbbd acf1 f8bd 2aed 08be
00000090: fd87 203d d5a7 96be d0a6 1dbe 403d a6be
000000a0: 734f 5bbd 4379 84be 9cb3 b2bd de2a 06be
000000b0: d9aa 34be 320d 08be 61c7 c4bd f969 60be
000000c0: 700e 55be eb29 7ebd 6fa9 1f3d 5238 86be
000000d0: efd0 a8be 99ee 87be 2250 62be a433 84be
000000e0: 5232 adbd 93ba 5bbd 4c67 63be d866 ffbd
000000f0: a8b6 7dbe 30a7 20be 88d1 83be 36b6 43be
00000100: ae6e 34bd 2034 44be 3beb cbbd 3c9e 5abd
00000110: 9d6c 13be 6589 cdbd f075 68be 2f8f 38be
00000120: b332 0c3c d417 7cbe 61dc 96bd c845 17be
00000130: 6b41 79be 5ad9 85be 5b0d c8be 12da 41bd
00000140: f8cf 8ebe e166 9d3c ccc7 46be 0d90 95be
00000150: 7869 aabe 82c6 a9bd c077 28be 85a5 87bc
00000160: a529 abbe fa76 4bbe c7d6 b1be 41a0 a83c
00000170: ebd8 49be 0050 83be 71fd 57bd d202 ac3b
00000180: 0ddd 6abe b04f bebb 9dc1 473d 9a4c 91be
00000190: 8b6b 74be c5b2 b2bd 662c 50be 033e 73be
000001a0: bce5 9bbd f3da 5fbe cab9 803a 6060 5fbe
000001b0: 9ecf 8bbe 5415 71be 33af 84be 7eeb 3ebe
000001c0: 469c e6bd 5a67 82be 69d3 a0bd 6db6 35be
000001d0: 9a32 a1bd 187e 6cbe 419e e4bd 8e88 a5be
000001e0: 7f38 ddbd 47c6 48be 1f95 5bbe 2ece 3fbe
000001f0: 8fa8 73be 2e03 11be 9d33 e7bd 94bc 35be
